dataset/d2v_256d.pt (torch, 145603 bytes, 10 tensors)

fc1.weight f4 [128, 6]
0	0x3cfe4b33	0.031041717
1	0xbb7d9288	-0.0038692076
2	0xbd8dcaff	-0.06923484
3	0xba5e4488	-0.000847884
4	0x3ebc7c31	0.368135
5	0xbd2681de	-0.040651195
6	0xbb180068	-0.0023193602
7	0xbd12f469	-0.03587762
8	0xbd9e2733	-0.077223204
9	0xbad66819	-0.0016357928
10	0x3ed4c07e	0.4155311
11	0x3c607567	0.013699866
12	0x3cf146fc	0.029452793
13	0xba8f9079	-0.001095309
14	0xbdaf5808	-0.085617125
15	0x3a6a9829	0.0008949065
16	0x3d8fb704	0.07017329
17	0x3b41b3f4	0.0029556723
18	0xbd17eb98	-0.037089914
19	0xbc114668	-0.008866884
20	0x3d240209	0.040041003
21	0xba2eb899	-0.00066650804
22	0xbe0121f2	-0.12610605
23	0x3cf1f9fe	0.02953815
24	0xbcbcb94a	-0.023037571
25	0x3bbce9a8	0.0057651587
26	0x3c803ad0	0.015653044
27	0xba584229	-0.0008249605
28	0xbdf853b4	-0.1212534
29	0x3d2822ce	0.041048817
30	0xbc874c37	-0.016515834
31	0x3ac8a65f	0.0015308372
32	0x3b667492	0.0035164696
33	0x39ecb1c1	0.00045145865
34	0x3e028247	0.1274501
35	0xbd099d99	-0.033597562
36	0x3c68ea63	0.014216038
37	0x3c009e13	0.007850188
38	0xbd9d9ba4	-0.07695702
39	0x3ab2faf3	0.0013655111
40	0x3df7916a	0.120882824
41	0x3cab1b8c	0.020887159
42	0xbdb28c58	-0.08718175
43	0xbb23fae7	-0.0025021376
44	0xbd0467f0	-0.032325685
45	0x3a29a617	0.00064715877
46	0x3d8f27d1	0.06990016
47	0x3d95c00d	0.073120214
48	0xbc82472f	-0.015903084
49	0xbb473dc2	-0.00304018
50	0x3c6e5ee9	0.0145489955
51	0x3a09d2f0	0.00052575674
52	0x3e421a45	0.18955334
53	0xbcc0dc94	-0.02354268
54	0xbd8c852a	-0.068613365
55	0xbc103c57	-0.008803449
56	0x3cbd32e6	0.02309556
57	0x38f064e9	0.00011462888
58	0xbd8f3271	-0.06992043
59	0xbc3642b4	-0.011124302
60	0x3bdcadd3	0.0067345886
61	0xbb8cb65c	-0.0042942
62	0x3c9d3d15	0.019194165
63	0x3a5ce6aa	0.00084267056
64	0xbd27c254	-0.04095681
65	0x3cbd3f6f	0.023101537
66	0x3d1f3edd	0.03887831
67	0x3b924fe9	0.0044650924
68	0xbc245944	-0.010031048
69	0x39f3de97	0.00046514414
70	0xbe0cc345	-0.13746364
71	0xbb9d4bb3	-0.004800284
72	0xbc814168	-0.015778258
73	0x3b52e683	0.0032180853
74	0x3cc6d529	0.024271565
75	0xbb72fefc	-0.0037078252
76	0x3f361a06	0.7113346
77	0x3b1064f8	0.0022032838
78	0xbc04f165	-0.008114194
79	0xbc3757ff	-0.0111904135
80	0xbc8ef571	-0.01745102
81	0xb9744ca5	-0.00023298206
82	0x3f16cae8	0.5890336
83	0xbd1fc923	-0.03901018
84	0x3dfe5bf9	0.12419886
85	0x3f0ed59d	0.557947
86	0xbeeeb9e9	-0.46626213
87	0x3882c937	6.236362e-05
88	0x3e1e329e	0.15448996
89	0xbc581dff	-0.013190745
90	0xbcedfd53	-0.029051458
91	0x3b95604b	0.004558598
92	0x3db93296	0.090428516
93	0x38883d27	6.496376e-05
94	0xbdc25b11	-0.09490026
95	0xbd24dfd9	-0.04025254
96	0xbd088ba2	-0.03333629
97	0xbc75a1aa	-0.014992157
98	0x3c35fa83	0.01110709
99	0x3ab1e659	0.0013572677
100	0xbdacb739	-0.084333844
101	0x3bfad710	0.007655032
102	0x3c40eebd	0.01177567
103	0x3c11f44c	0.008908343
104	0xbc336632	-0.010949658
105	0xba5569b2	-0.0008141055
106	0x3bd49061	0.006486938
107	0x3d2a879a	0.041633226
108	0xbaccaf6b	-0.0015616243
109	0x3c062a97	0.008188865
110	0xb95c4c7b	-0.00021009326
111	0xba71ae07	-0.00092193525
112	0x3ce32da0	0.027731717
113	0x3d02dfdd	0.031951774
114	0x3cadd50c	0.021219753
115	0x3d305ee8	0.04305926
116	0xbb9ccc38	-0.004785087
117	0xba7e4bb2	-0.00097006105
118	0xbcc459a4	-0.023968525
119	0x3d8e986b	0.06962665
120	0xbd2b2edf	-0.041792747
121	0xbba5217e	-0.005039393
122	0xbd45ea6e	-0.048319273
123	0x3a0f5889	0.000546821
124	0x3d2c3ec8	0.04205206
125	0x3c8f3d9e	0.017485436
126	0x3cb5034f	0.022096304
127	0x3ac9c807	0.0015394696
128	0x3cbc5341	0.022988917
129	0xb9201135	-0.00015265199
130	0x3bbe4991	0.0058071096
131	0x3c34db1d	0.011038569
132	0xbf9c1e90	-1.2196827
133	0xbbaf67a0	-0.0053529292
134	0xbe2f587b	-0.17123596
135	0x3cb78aef	0.022405116
136	0x3e14a392	0.14515522
137	0xbdfa2746	-0.12214522
138	0x3cb691c4	0.022286303
139	0xbc1b69c0	-0.009485662
140	0xbca59c55	-0.020216146
141	0x399a78cd	0.00029463173
142	0xbc454280	-0.012039781
143	0x3acbfd8b	0.0015563233
144	0xbc5f6f72	-0.0136374105
145	0x3b480418	0.0030520018
146	0x3d7e4dd9	0.06208596
147	0x38968431	7.17718e-05
148	0xbe202f0d	-0.15642948
149	0xbcb65112	-0.022255454
150	0xbc97b833	-0.01852045
151	0x3c9109b3	0.01770482
152	0xbc90e4bd	-0.017687196
153	0x3aad8615	0.0013238812
154	0xbf195eb2	-0.5991012
155	0x3d257fbd	0.040405024
156	0xbd73a193	-0.05948026
157	0xbafe4846	-0.0019400201
158	0x3b1d9f76	0.0024051345
159	0x3b8d2973	0.0043079196
160	0x3dc1916f	0.094515674
161	0xbce3eeea	-0.027823884
162	0xbad226f0	-0.0016033333
163	0x3b28da83	0.0025765009
164	0xbd2b1c35	-0.041774947
165	0x39987fa9	0.00029086813
166	0xbd077639	-0.03307173
167	0x3cdd342a	0.027002413
168	0x3c62547c	0.013814088
169	0x3c52f3e1	0.012875528
170	0xbbf2bbe7	-0.0074076536
171	0x392aa395	0.00016273402
172	0xbea65d43	-0.32493028
173	0x3d4d28ef	0.050087865
174	0xbdf7799a	-0.120837405
175	0x3f10b9bc	0.5653341
176	0x3eff79c2	0.4989758
177	0xbc9b29e1	-0.018940868
178	0xbb2171df	-0.0024634523
179	0x3ea67969	0.32514504
180	0x3e77bf16	0.24193987
181	0xbe0b7dd9	-0.13622226
182	0xbd9215ca	-0.07133062
183	0xbb107cb2	-0.002204698
184	0x3d9f0e92	0.07766451
185	0x3f8ad8f1	1.0847455
186	0xbd4390cf	-0.047745522
187	0xbbdeb5ef	-0.0067965905
188	0xbd8ded89	-0.06930072
189	0x3b091a23	0.002092012
190	0xbe2b25a8	-0.16713583
191	0x3d8f41a5	0.069949426
192	0xbd630d0b	-0.05543236
193	0x3bc2a980	0.005940616
194	0x3d9c4928	0.07631141
195	0xb9836707	-0.00025063028
196	0xbe8481d5	-0.25880304
197	0x3b8c7bc3	0.0042872145
198	0x3dc06a7d	0.09395311
199	0xbcd4923b	-0.025948634
200	0xbe003b83	-0.12522702
201	0x3c073853	0.008253175
202	0xbf87c622	-1.060734
203	0xb95a9ce2	-0.00020848543
204	0x3cc0a43b	0.023515811
205	0x3c1da745	0.0096224
206	0x3d51c4a1	0.05121291
207	0xb83e6cec	-4.540097e-05
208	0x3c7f88b3	0.0155965565
209	0xb9dc1042	-0.00041973783
210	0xbc905033	-0.017616367
211	0xbb940461	-0.0045171236
212	0xbd14802c	-0.036255047
213	0x3a7ff3f9	0.0009763833
214	0x3e5a3c71	0.21312119
215	0xbc057be1	-0.008147211
216	0x3c2c9f07	0.010535962
217	0xbad50ef5	-0.0016255068
218	0xbc901424	-0.017587729
219	0x3a630a23	0.0008660873
220	0x3c52700a	0.012844095
221	0xbd10d387	-0.03535798
222	0xbd54de01	-0.051969532
223	0xbd0478de	-0.03234183
224	0xbc421eb7	-0.011848143
225	0x3ace4915	0.0015738333
226	0x3b983f15	0.004646192
227	0xbd0f2ee1	-0.034956817
228	0xbd84a2cc	-0.064763635
229	0x3ba945cf	0.0051657925
230	0x3d7a561e	0.061117284
231	0xbadfd80c	-0.0017077937
232	0x3e84f53b	0.25968346
233	0xbb9ab23a	-0.0047209533
234	0xbd80c335	-0.06287233
235	0xbc35e99e	-0.011103062
236	0x3bad4977	0.0052882987
237	0x3a7f6842	0.00097430137
238	0xbdaa487a	-0.08314605
239	0xbaa87635	-0.0012852611
240	0x3d097e8b	0.033567946
241	0x3aab0fc8	0.0013050968
242	0x3bf3a06f	0.0074348967
243	0xb992fa65	-0.00028033849
244	0x3e38d01f	0.18048142
245	0xbd08bd03	-0.03338338
246	0xbc36c002	-0.011154177
247	0x3c47c0f6	0.012192002
248	0x3ca82ba1	0.020528616
249	0x39ec6f93	0.00045096557
250	0x3e650018	0.22363317
251	0x3cbd4fd8	0.023109362
252	0x3f25f966	0.64833677
253	0xbb293aa9	-0.0025822318
254	0xbce7dc6f	-0.028303353
255	0xbba536ef	-0.005041949

fc1.bias f4 [128]
0	0x3eb2b8cb	0.3490661
1	0x3f3383ea	0.7012316
2	0xbd2d38e5	-0.042290587
3	0x3d8823d4	0.06647459
4	0x3eea2fc0	0.45739555
5	0xbd6879bf	-0.05675673
6	0xbdc2eabd	-0.09517429
7	0xbf453a9c	-0.77042556
8	0xbef7edea	-0.48423702
9	0x3f12a1c0	0.5727806
10	0xbeceb9e6	-0.40376204
11	0x3e052388	0.13001835
12	0x3eb59b75	0.35470167
13	0x3deb7132	0.114962
14	0xbece66ea	-0.40312892
15	0xbf2fdc2c	-0.6869533
16	0xbe875247	-0.2642996
17	0x3dbe7de3	0.09301355
18	0x3e45c83b	0.19314663
19	0x3daa3e5b	0.083126746
20	0x3e9bd69b	0.30437168
21	0xbe840dc2	-0.25791746
22	0xbf4285ab	-0.7598521
23	0xbeac3bc4	-0.33639348
24	0xbf10110e	-0.56276023
25	0x3dbf85b5	0.093516745
26	0x3f580088	0.8437581
27	0xbd8db199	-0.0691864
28	0x3db92afb	0.09041401
29	0x3e67b5e4	0.2262798
30	0x3f0b9458	0.5452323
31	0xbeb5384c	-0.35394514
32	0x3ec73db2	0.38914257
33	0xbf6bb716	-0.9207624
34	0x3ced593b	0.028973212
35	0xbeae3ec3	-0.34032258
36	0xbe93b5fd	-0.28849784
37	0xbe98795d	-0.29780093
38	0x38c55550	9.409583e-05
39	0x3d8e815a	0.069582656
40	0xbe9022fe	-0.28151697
41	0xbe67da50	-0.22641873
42	0x3f256672	0.64609444
43	0xbd56cf1a	-0.0524436
44	0x3d8eece8	0.0697878
45	0x3e43d65c	0.1912474
46	0xbdd94201	-0.10608292
47	0x3da5205a	0.08062811
48	0x3f76624a	0.9624373
49	0x3eb143ca	0.3462203
50	0x3e953423	0.2914134
51	0xbc294b0e	-0.010332836
52	0x3eb29da6	0.348859
53	0x3d1e5b1f	0.03866112
54	0x3f46a101	0.7758942
55	0xbc9727f8	-0.018451676
56	0xbef01999	-0.4689453
57	0xbdaf05e3	-0.08546045
58	0xbf388110	-0.72071934
59	0x3d80ce7b	0.06289383
60	0xbf2779b1	-0.6542006
61	0x3ea5930a	0.32338744
62	0x3e2c323c	0.16816038
63	0x3e2ac917	0.16678272
64	0xbe870a3d	-0.26375
65	0x3ede450f	0.43412063
66	0x3dc35787	0.09538179
67	0xbecdae62	-0.40172106
68	0x3d8c9c76	0.0686578
69	0x3f29df16	0.6635603
70	0xbeb10a1e	-0.3457803
71	0xbe8775c8	-0.26457047
72	0xbf425210	-0.7590647
73	0xbdfa90b5	-0.12234632
74	0xbee4f301	-0.44716647
75	0xbf0533ae	-0.5203198
76	0x3eb34d0a	0.35019714
77	0x3ea93c66	0.33053893
78	0x3e19f632	0.15035322
79	0xbf03873b	-0.5137822
80	0x3f2d9170	0.67800045
81	0x3cce4abd	0.025182122
82	0x3e8422cf	0.25807807
83	0x3ee5365d	0.44768038
84	0x3eb8b460	0.36075115
85	0xbe303661	-0.17208244
86	0xbb483506	-0.0030549183
87	0x3dbc9e10	0.092098355
88	0xbe4f7cea	-0.20262495
89	0xbe9a1983	-0.3009759
90	0xbda8ef38	-0.08248752
91	0x3dcdaa7f	0.10042285
92	0x3d6e3e2f	0.05816477
93	0xbe078107	-0.13232814
94	0x3dda166b	0.10648807
95	0xbca7bfdf	-0.020477233
96	0xbaa87eca	-0.0012855169
97	0x3e1106a3	0.14162688
98	0x3df3805a	0.118897155
99	0x3e3cce2e	0.18438026
100	0x3f0928b6	0.53577745
101	0x3f263bea	0.6493517
102	0x3f2a7525	0.66585
103	0x3eb907b7	0.36138698
104	0xbf13b7dc	-0.5770242
105	0xbe3b3a0c	-0.18283862
106	0xbf1c9a66	-0.61173093
107	0xbe450c98	-0.19243085
108	0xbf7a4493	-0.97760886
109	0x3dea30a7	0.11435061
110	0xbe681bd9	-0.22666873
111	0xbe8cc794	-0.27496016
112	0x3f1df2ab	0.61698407
113	0xbdbc3273	-0.0918931
114	0xbd9a118d	-0.07522879
115	0x3e3ec41f	0.18629502
116	0xbe9a4061	-0.30127242
117	0x3e6d82e4	0.23194462
118	0x3f07b2c2	0.5300714
119	0xbf000ea1	-0.5002232
120	0x3e2efe14	0.1708911
121	0x3ecff3b7	0.40615627
122	0xbf03d596	-0.5149778
123	0x3e89bcf9	0.26901987
124	0x3e945ac0	0.28975487
125	0xbd858644	-0.0651975
126	0xbe8be0ac	-0.2731985
127	0x3e26f8f3	0.16305904

fc2.weight f4 [128, 6]
0	0x3edf9937	0.4367158
1	0xbf4e92f3	-0.80692977
2	0xbe643edc	-0.22289604
3	0xbe00e51b	-0.12587397
4	0xbd86dffc	-0.065856904
5	0x3d255aee	0.04036992
6	0xbfa7d1c2	-1.3110888
7	0xbf94caa5	-1.1624342
8	0xbf9eb4b2	-1.2398894
9	0xbfd13a35	-1.6345888
10	0xbfbb22e8	-1.4620028
11	0xbfadf1b5	-1.3589388
12	0x3e6eb0ef	0.23309682
13	0x3e358888	0.17727864
14	0xbefaa3c3	-0.48953065
15	0xbe92f7f8	-0.2870481
16	0x3e2b693d	0.16739364
17	0x3f91fa1e	1.1404455
18	0x3e82f501	0.25577548
19	0x3f50605c	0.8139703
20	0x3f14409d	0.5791109
21	0x3fa8ab51	1.3177282
22	0x3f860270	1.0469494
23	0xbe022258	-0.12708414
24	0x3f0fdd2c	0.56196856
25	0x3efd96ac	0.49529016
26	0x3eab946b	0.3351167
27	0x3f059ab4	0.52189183
28	0x3f148123	0.58009547
29	0x3fa46a35	1.2844912
30	0xbeae867f	-0.34086987
31	0xbe2ba3f0	-0.16761756
32	0xbf2cfd38	-0.6757388
33	0xbf187946	-0.5956005
34	0xbd5ef743	-0.054435026
35	0x3e42b3bd	0.19013877
36	0x3ffdbc74	1.9823136
37	0x3fbe3f6a	1.4863102
38	0x3f13ce2c	0.5773647
39	0x3f9e8a95	1.2386042
40	0x40038bfc	2.055419
41	0x3f44ec2e	0.7692288
42	0x3fabc37f	1.3419036
43	0x3f97d64a	1.1862271
44	0x3f86143c	1.0474925
45	0x3fa06d3d	1.2533337
46	0x3fa39de8	1.2782564
47	0xbf11c93d	-0.5694769
48	0xbf743f97	-0.9540953
49	0x3ea952db	0.33071026
50	0xbf1dc92e	-0.616351
51	0xbf62ff0f	-0.8867044
52	0xbfcee68d	-1.6164109
53	0xbf96699f	-1.1750983
54	0xbce7726f	-0.028252808
55	0xbf0d3e80	-0.5517349
56	0xbf0d6469	-0.5523134
57	0x3de1eb89	0.11031253
58	0x3da6fb01	0.08153344
59	0xbf4b352b	-0.79378
60	0xbe2c5d90	-0.16832566
61	0x3f422048	0.7583051
62	0xbe97d4f0	-0.29654646
63	0xbd45a2c9	-0.048250947
64	0xbeb0b967	-0.3451645
65	0x3f6b4c7a	0.9191357
66	0xbf6b8768	-0.9200349
67	0xbf330bd3	-0.6993992
68	0xbfce8abd	-1.613609
69	0xbf2159b1	-0.63027483
70	0xbf304ca1	-0.68866926
71	0xbf020bc2	-0.5079919
72	0x401151c8	2.2706165
73	0x3fc79190	1.5591297
74	0x40169b6e	2.3532367
75	0x401b4e9c	2.426673
76	0x402abca3	2.6677635
77	0x40115b9b	2.2712162
78	0x3f2c96d1	0.6741763
79	0xbe05296d	-0.13004084
80	0xbe07db98	-0.13267362
81	0xbd9d36b2	-0.07676448
82	0x3d3d2a95	0.046183188
83	0xbf6a2c8d	-0.9147423
84	0xbe444a23	-0.19168906
85	0xbe813fbb	-0.25243935
86	0x3d96015b	0.07324477
87	0xbd0c390c	-0.03423409
88	0x3f0b69bc	0.5445821
89	0xbe449dbe	-0.19200799
90	0xbea5b984	-0.323681
91	0xbfdde9d3	-1.7336982
92	0xbdd89af3	-0.10576429
93	0xbf83d6da	-1.0299942
94	0x3efc77ba	0.49310094
95	0xbec729fd	-0.38899222
96	0x3d150631	0.036382858
97	0xbf63fba0	-0.89055824
98	0xbeb23ef6	-0.3481366
99	0x3efa26eb	0.48857817
100	0xbe9091e9	-0.2823632
101	0x3e0fa228	0.14026701
102	0xbf46ef83	-0.77709216
103	0x3993db55	0.0002820144
104	0xbe80c180	-0.2514763
105	0x3f202b53	0.6256611
106	0xbde19f5e	-0.11016725
107	0x3d840110	0.06445515
108	0xbefb6484	-0.49100125
109	0x3d3ad898	0.045616716
110	0x3eb10412	0.34573418
111	0xbe9507ee	-0.29107612
112	0xbe0e104d	-0.13873406
113	0x3e7ec34e	0.2487919
114	0xbe65d9f3	-0.22446422
115	0xbe885322	-0.26625925
116	0xbf2151bf	-0.6301536
117	0xbebdb595	-0.370526
118	0xbc3d3f5b	-0.01155075
119	0x3f7d4cc3	0.98945254
120	0x4007bb24	2.1207972
121	0x403a7ac0	2.913742
122	0x400f4ca1	2.239052
123	0x40042ec8	2.0653553
124	0x400267be	2.037582
125	0x3fd07a10	1.628725
126	0xbfe0f388	-1.757432
127	0xbf3f402b	-0.7470729
128	0xbfc9958d	-1.5748764
129	0xc004244d	-2.0647156
130	0xbfee2b62	-1.8606989
131	0xc00757ce	-2.1147342
132	0x3e9a9070	0.30188322
133	0x3f6e0f6b	0.92992276
134	0xbe90d5e6	-0.28288192
135	0x3f19652a	0.5991999
136	0x3f46006a	0.7734438
137	0x3f383b17	0.71965164
138	0x3ed3c7d3	0.4136339
139	0x3f823576	1.0172565
140	0x3ea9cf9a	0.331662
141	0x3f8d4524	1.1036725
142	0x3f5a54d1	0.8528567
143	0x3f3df346	0.7419933
144	0xbfa33a4b	-1.2752165
145	0xbfcccadc	-1.5999408
146	0xbe10ced9	-0.14141406
147	0xbd308e7b	-0.04310463
148	0xbf00289b	-0.5006196
149	0xbe63ed51	-0.22258498
150	0xbe9be7a9	-0.3045018
151	0xbebef130	-0.37293386
152	0xbf126545	-0.57185775
153	0xbe881dfd	-0.2658538
154	0xbcff6963	-0.031178182
155	0x3ebabef1	0.36473802
156	0x3e851bb8	0.2599771
157	0x3f477a99	0.77921444
158	0x3d4ab4aa	0.0494887
159	0xbca38079	-0.019958721
160	0x3e6cb2a9	0.23115028
161	0x3e858b44	0.26082814
162	0xbe47e339	-0.19520272
163	0xbfbbd2da	-1.4673722
164	0xbf08aaeb	-0.533858
165	0xbf5e7670	-0.8689947
166	0xbeff7f23	-0.49901685
167	0xbed2fe23	-0.41209516
168	0xbf12f578	-0.57405806
169	0xbf186aae	-0.5953778
170	0xbf94d186	-1.1626441
171	0xbf6c9d25	-0.92427284
172	0xbf17a1e4	-0.592314
173	0xbf12bd30	-0.5731993
174	0x3f4d930f	0.8030252
175	0x3f894ca3	1.0726513
176	0xbdb6cf86	-0.08926301
177	0x3f91349f	1.1344184
178	0x3f1fa1f4	0.62356496
179	0x3f83b128	1.0288439
180	0x3e60229b	0.21888201
181	0x3f4808a6	0.78138196
182	0x3fa1a59f	1.2628669
183	0x3f8b64c5	1.0890127
184	0x3e9fe031	0.31225732
185	0x3ef91680	0.4864998
186	0xbf69ad94	-0.91280484
187	0xbdd9a1fa	-0.10626598
188	0xbef96c0d	-0.4871525
189	0xbf39cb31	-0.7257567
190	0xbea1067d	-0.31450263
191	0xbf52f253	-0.8240101
192	0xbe3b2c67	-0.18278657
193	0xbd8244a8	-0.063607514
194	0x3eccbf18	0.39989543
195	0x3da4db8a	0.08049686
196	0x3f946e5c	1.1596179
197	0x3e27c379	0.1638316
198	0xbe034474	-0.12819082
199	0xbcf9230a	-0.030412216
200	0x3ef18b58	0.47176623
201	0x3f0549a0	0.5206547
202	0x3f29ca22	0.66324055
203	0x3f001ea7	0.5004677
204	0xbf18b936	-0.5965761
205	0xbe64565a	-0.22298566
206	0xbef091cf	-0.46986243
207	0x3d81c465	0.063362874
208	0x3e696d3c	0.22795576
209	0xbf2bd5d3	-0.67123145
210	0xbfd2e51c	-1.6476169
211	0xbf47892f	-0.779437
212	0xbf042d7e	-0.51631916
213	0xbf8614f4	-1.0475144
214	0xbf80542f	-1.0025691
215	0xbf93aad3	-1.1536506
216	0xc00e36ff	-2.2221067
217	0xbf40bbfa	-0.7528683
218	0xc02fa6a9	-2.7445471
219	0xbfbc7595	-1.4723383
220	0xc0032732	-2.0492673
221	0xbf9dd7aa	-1.233144
222	0x3f3ac936	0.72963274
223	0x3fbac8b3	1.4592499
224	0x3f313fda	0.69238055
225	0x3f4e8b3d	0.8068121
226	0x3f594951	0.84877497
227	0x3f9fbc9d	1.2479435
228	0xbee0accc	-0.43881834
229	0xbadfa5c4	-0.0017062952
230	0x3e262307	0.162243
231	0x3e8d5f6f	0.27611873
232	0x3f12b3cd	0.57305604
233	0x3e865650	0.26237726
234	0x3f3480fc	0.70509315
235	0x3f9546b8	1.1662207
236	0x3e2e2909	0.17007841
237	0x3e7f0802	0.24905398
238	0x3f2d8b60	0.67790794
239	0xbedcffaa	-0.43163806
240	0x3e9f3bad	0.31100217
241	0x3fe83a66	1.8142822
242	0x3f08be60	0.5341549
243	0x3e91c75e	0.28472418
244	0x3f78fcda	0.9726082
245	0x3e64a21b	0.22327463
246	0x3f06a676	0.5259775
247	0x3f03356c	0.5125339
248	0xbd48361c	-0.048879728
249	0x3f95b1ea	1.169492
250	0x3d324011	0.04351813
251	0x3f7f4f90	0.9973078
252	0xbeeff43d	-0.46866027
253	0x3ef0635d	0.46950808
254	0x3debc7e1	0.11512733
255	0xbf0772c0	-0.5290947

fc2.bias f4 [128]
0	0xbf493075	-0.78589565
1	0xbf90c566	-1.1310241
2	0x3ec4ecbf	0.38461873
3	0x3f6c2464	0.9224303
4	0xbd91674d	-0.07099781
5	0x3e067597	0.13130794
6	0x3fbc210f	1.4697589
7	0x3fae3c80	1.3612213
8	0xbf6da390	-0.928277
9	0xbee05631	-0.4381576
10	0x3f18f342	0.5974618
11	0xbf62c64d	-0.8858383
12	0x40307f79	2.7577803
13	0xbee0a261	-0.43873885
14	0x3ed054e5	0.4068977
15	0xbf636107	-0.88819927
16	0x3f4e181e	0.8050555
17	0x3e82f896	0.2558028
18	0xbed7fdc2	-0.4218579
19	0xbf3205be	-0.6954001
20	0x4010fdc9	2.2654898
21	0xbfbdb5a9	-1.4821063
22	0xbd428875	-0.047493417
23	0x3f81c147	1.0137109
24	0xbeef4a54	-0.46736395
25	0xbd8cc33b	-0.06873175
26	0xbda7d21d	-0.08194373
27	0xbf5f6935	-0.8726991
28	0xbf90e87d	-1.132095
29	0x3f310a93	0.6915676
30	0x3f8094b3	1.0045379
31	0xbec1dfb9	-0.37866
32	0x3d8ab8b8	0.067735136
33	0x3f4601eb	0.77346677
34	0xbedc11c1	-0.42982295
35	0xbf7d33b2	-0.98907006
36	0xbfd2dff6	-1.6474597
37	0x3f682fb8	0.90697813
38	0x3d3c7c1f	0.04601681
39	0x3eaf4d77	0.34238788
40	0x3f5ee13d	0.87062436
41	0x3f18ba1d	0.59658986
42	0xbf04c291	-0.51859385
43	0xbf74314a	-0.9538771
44	0xbcc8e026	-0.024520945
45	0xbec1cdd2	-0.3785234
46	0x3f31e26c	0.6948612
47	0x3f9f6f49	1.2455837
48	0xbf9e6473	-1.2374405
49	0x3f869532	1.0514281
50	0x3ed54d88	0.41660714
51	0xbf4ae270	-0.79251766
52	0xbee8f32a	-0.4549802
53	0x3e2a9b71	0.16660859
54	0x3fac38a0	1.345478
55	0xbeb459f2	-0.35224873
56	0x3bc0bb60	0.005881712
57	0xbf5105d3	-0.8164951
58	0x400a008c	2.1562834
59	0xbf52511c	-0.82155013
60	0x3e3c1854	0.18368655
61	0xbf6718d4	-0.9027226
62	0xc005f493	-2.0930526
63	0x3f398907	0.7247471
64	0xbd9a269a	-0.07526894
65	0xbf993577	-1.1969441
66	0x3fb41b96	1.4070919
67	0xbf83db49	-1.0301296
68	0xbeb1728d	-0.34657708
69	0xbe295577	-0.16536509
70	0xbc90b82f	-0.01766595
71	0xbf9e6154	-1.2373452
72	0x3f6ca6f2	0.9244224
73	0x3fa83d83	1.3143772
74	0x3f4aee43	0.7926981
75	0xbe7e545f	-0.24836873
76	0x3fb4284a	1.4074795
77	0x3f1adea0	0.6049595
78	0x3f96ac07	1.1771249
79	0x3fd4f220	1.6636391
80	0xbf92e9a3	-1.147755
81	0xbf99457d	-1.1974331
82	0xbf9c2c22	-1.2200968
83	0xbf48fb4e	-0.7850846
84	0x3f61a072	0.88135445
85	0xbfa55ff4	-1.2919908
86	0x3efa0080	0.48828506
87	0x3c53ecc4	0.012934867
88	0xbef274ac	-0.4735464
89	0xbec82238	-0.39088607
90	0x3f165f09	0.5873876
91	0x3f4dee44	0.8044169
92	0x3dfedf16	0.12444894
93	0xbf9dd85d	-1.2331654
94	0xbe6c7204	-0.23090369
95	0xbf4ebfea	-0.8076159
96	0x3f302b77	0.6881632
97	0x3e5b9ce6	0.21446571
98	0xbf60981a	-0.8773209
99	0x3f0fe083	0.5620195
100	0x3fcdcd85	1.6078345
101	0x3fa9e67b	1.3273462
102	0xbfc48a94	-1.5354791
103	0x3e4c367c	0.19942659
104	0x3d921979	0.07133765
105	0x3dfbd1cd	0.12295876
106	0xbf0772a4	-0.529093
107	0x3f8c607b	1.0966944
108	0xbeb38a61	-0.35066512
109	0x3f8b8e0d	1.0902725
110	0xbe16dbb8	-0.14732254
111	0xbe4b0ab1	-0.19828297
112	0xbfe50627	-1.7892503
113	0x3fa0181e	1.250736
114	0xbe9b1dec	-0.30296266
115	0xbe2093f5	-0.15681441
116	0xbf73aa02	-0.95181286
117	0x3f308635	0.68954784
118	0x3ec2a705	0.3801805
119	0x3f5eb2b7	0.8699145
120	0xbe15ae22	-0.14617208
121	0x3e81a320	0.25319767
122	0xbee66f5a	-0.4500683
123	0x3f1a4350	0.6025896
124	0xbeb3ea03	-0.35139474
125	0xbf871499	-1.0553161
126	0xbe85ac12	-0.26107842
127	0xbf820210	-1.015688

fc3.weight f4 [128, 256]
0	0xbc87d7fd	-0.016582483
1	0x3c41f4a6	0.011838114
2	0x3c646d1b	0.013942028
3	0x3b8a80db	0.0042267866
4	0xba1e9513	-0.00060494355
5	0x3b8f254d	0.0043684603
6	0xbcb61684	-0.022227533
7	0xbc2f91d4	-0.0107159205
8	0xbc795ac5	-0.015219395
9	0xbcedbe33	-0.029021358
10	0x3ca63b23	0.02029187
11	0xbc4137a8	-0.011793055
12	0x3b32129c	0.0027171737
13	0x3c8a9a3d	0.01691925
14	0x3d460d83	0.04835273
15	0x3bc0a3f6	0.0058789207
16	0xbcc1980f	-0.023632078
17	0x3ca4c338	0.020112619
18	0x3c81a4b9	0.015825616
19	0x3d1c414f	0.03814822
20	0xbca0b506	-0.019617569
21	0xbc316225	-0.010826622
22	0x3ca71841	0.020397307
23	0x3c823429	0.015894013
24	0x3b72ac94	0.0037029134
25	0x3ca8b3c6	0.020593535
26	0xbb987d62	-0.0046536187
27	0x3ca01319	0.019540356
28	0x3ca99094	0.020698823
29	0xbc4442b6	-0.011978796
30	0xbce453f7	-0.027872069
31	0x3c202225	0.009773766
32	0xbb3fa6f6	-0.0029243804
33	0x3ce06194	0.027390279
34	0x3ba46889	0.0050173444
35	0xbc427e52	-0.011870937
36	0xbc6bd469	-0.014393904
37	0xbcaef3ab	-0.021356424
38	0xbc8f27c3	-0.017475015
39	0xbcbd75e8	-0.023127511
40	0xbc65a5a3	-0.014016542
41	0x3d023c80	0.03179598
42	0xbd281fa3	-0.041045796
43	0x3bae435b	0.005318088
44	0xbbe99bad	-0.0071291537
45	0xbc06cdf4	-0.008227814
46	0xbcdc638c	-0.026902936
47	0xbc8eae66	-0.017417144
48	0x3c12a078	0.008949392
49	0xbc402dd9	-0.011729681
50	0xbaf6013d	-0.001876868
51	0xbc9ea98a	-0.019367952
52	0x3c0c8fc4	0.008579198
53	0xbcc6268c	-0.024188302
54	0x3ceed34b	0.029153487
55	0xbd067498	-0.032826036
56	0xbbc4e3fb	-0.0060086227
57	0x3c71344a	0.014721939
58	0xbbba9f62	-0.0056952694
59	0xbcc4817c	-0.023987524
60	0xbbd20cfb	-0.006410239
61	0xbc5e09ac	-0.013552111
62	0x3ccf549f	0.025308905
63	0x3abbe4b2	0.0014335124
64	0xbcc03975	-0.023464898
65	0xbc4395ac	-0.01193754
66	0x3c717173	0.014736521
67	0xbcb942d0	-0.022614866
68	0xbd2a2f87	-0.04154923
69	0x3cc73815	0.024318734
70	0x3bbb906e	0.0057240045
71	0x3b84de75	0.0040548393
72	0xbce47f51	-0.02789274
73	0xbcbbbb27	-0.02291639
74	0x3b8216b0	0.0039699897
75	0xbc8eee5d	-0.017447645
76	0x3acd22c5	0.0015650621
77	0x3cbe115b	0.023201635
78	0x3c2d4d53	0.010577518
79	0x3cb29483	0.021799332
80	0xbd06796f	-0.03283065
81	0x3b5e41dd	0.003391377
82	0x3c260c50	0.0101347715
83	0xbceb777a	-0.028743494
84	0xbd040342	-0.03222967
85	0xbb627071	-0.0034551884
86	0x3cb2dc67	0.021833612
87	0x3d204a25	0.03913321
88	0xbc0a3631	-0.008435772
89	0xbb07227c	-0.002061992
90	0xbc393b8f	-0.011305704
91	0x3cfb4f67	0.03067751
92	0x3c515f5f	0.012779086
93	0xbcb31972	-0.02186272
94	0xbd043a33	-0.032282066
95	0x3cbac7a3	0.022800272
96	0x3c75de63	0.015006634
97	0xbca2f8a7	-0.019893957
98	0xbcc65ddc	-0.024214678
99	0x3b1f66f5	0.0024322842
100	0x3c74b450	0.014935568
101	0xbc99312b	-0.018700203
102	0xbc650a4f	-0.013979509
103	0x3c99b3dc	0.018762521
104	0x3d04c961	0.032418612
105	0xbc818f5b	-0.015815428
106	0x3d3231e1	0.0435046
107	0xbd02b606	-0.031911872
108	0x3d277495	0.040882666
109	0xbd0ce369	-0.034396563
110	0xbb22a42d	-0.0024817095
111	0xbbf96414	-0.007610807
112	0xbc769b15	-0.015051623
113	0x3c813206	0.015770923
114	0xbcc3d560	-0.023905456
115	0x3c545db7	0.0129617965
116	0x3ce8fc06	0.028440487
117	0xbc958042	-0.018249635
118	0x3cb34607	0.021883978
119	0x3c9b701a	0.018974353
120	0xbc813433	-0.01577196
121	0xbb39d8b2	-0.002835792
122	0x3c25f46c	0.0101290755
123	0xbcf1471f	-0.029452858
124	0xbcd2be73	-0.025725579
125	0xbcd73d85	-0.026274452
126	0x3c3a4732	0.011369513
127	0xbc97b967	-0.018521024
128	0x3b0d7b94	0.002158855
129	0xbd9bf2ec	-0.07614693
130	0xbd3d36c0	-0.04619479
131	0xbd3216b6	-0.04347869
132	0xbd359e2e	-0.044340305
133	0x3d7053e0	0.05867374
134	0x3d2e9739	0.042624686
135	0xbbff5ca1	-0.0077930246
136	0xbd42b602	-0.047536857
137	0xbc3a0cee	-0.011355622
138	0x3c95fc38	0.018308744
139	0xbc6f1c54	-0.014594156
140	0x3d0360b0	0.03207463
141	0x3b346a2b	0.0027529101
142	0xbc8abd02	-0.01693583
143	0x3cc162e7	0.02360673
144	0x3cd9e5bc	0.026598804
145	0x3cf0a331	0.02937469
146	0x3c640212	0.013916509
147	0x3c2643de	0.010148017
148	0x3cab9303	0.020944124
149	0x3b41c442	0.0029566442
150	0xbbb1239e	-0.005405857
151	0x3c04972e	0.008092685
152	0xbdb3a9a0	-0.08772588
153	0xbc1e2c6b	-0.009654145
154	0x3cc14a4a	0.023594994
155	0x3d0a129f	0.033709165
156	0xbd5bc56a	-0.053655066
157	0xbc9574dc	-0.0182442
158	0xbc9385d0	-0.018008143
159	0x3ce098c2	0.02741659
160	0xbd26af41	-0.04069448
161	0x3bd0cb70	0.006371908
162	0x3d476957	0.048684444
163	0xbd0ade04	-0.033903137
164	0x3c96a28b	0.018388053
165	0x3d319ae9	0.043360624
166	0xbd53e996	-0.051736437
167	0x3cfc3aad	0.030789698
168	0xbd0b8937	-0.034066405
169	0x3b08e0cb	0.002088594
170	0xbce69513	-0.028147256
171	0x3d4e48bd	0.050362337
172	0x3ce76b71	0.028249474
173	0x3d81d627	0.063396744
174	0xbcc8f7cb	-0.02453222
175	0x3ccc20d1	0.024917992
176	0xbd21b309	-0.03947738
177	0xbbfcbb63	-0.007712768
178	0xbca422ad	-0.020036066
179	0x3cd29b15	0.025708715
180	0xbbf776e2	-0.0075520137
181	0xbd94ae72	-0.07259835
182	0x3d605261	0.054766063
183	0xbbb1f974	-0.0054313485
184	0x3b8ed77d	0.0043591843
185	0x3bfd49f9	0.0077297655
186	0xbcf0148f	-0.029306678
187	0x3cdbcba9	0.026830511
188	0x3d1e9ce2	0.038723834
189	0xbbb43346	-0.0054992763
190	0x3d4f4cbd	0.050610293
191	0x3bce8970	0.006303005
192	0x3cf87f0b	0.030334016
193	0x3dba4d94	0.09096828
194	0xbd91cc78	-0.071190774
195	0x3da39117	0.07986658
196	0x3d97733d	0.07395027
197	0x3d0b519a	0.03401337
198	0x3c7b1ee7	0.015327192
199	0xbd23859f	-0.039922353
200	0x3c1eb0d7	0.009685717
201	0xbd0450e3	-0.032303702
202	0xbd6e1f0a	-0.05813507
203	0x3f1d0304	0.61332726
204	0xbc9022dd	-0.01759475
205	0x3d29ca4b	0.041452687
206	0xbcb18d86	-0.021673929
207	0xbb0f7803	-0.00218916
208	0x3cffe8aa	0.031238873
209	0xbc24afb8	-0.01005166
210	0x3d2998c0	0.04140544
211	0xbbc52b18	-0.0060171
212	0x3b9cb2b6	0.004782046
213	0xbd784f3e	-0.060622446
214	0xbd319aec	-0.043360636
215	0xbd87af0c	-0.066251844
216	0x3d731a98	0.059351534
217	0x3d34b2f3	0.04411597
218	0xbbb9d979	-0.0056716767
219	0x3c0c24e6	0.008553719
220	0xbc0a7bbd	-0.008452353
221	0x3bf1afe5	0.0073757046
222	0xbd92d184	-0.07168868
223	0xbbd2fede	-0.006439074
224	0xba9ea73e	-0.0012104285
225	0x3c428658	0.01187285
226	0x3d600fb7	0.054702487
227	0x3d3a1aa8	0.045435578
228	0x3d5658a9	0.052330647
229	0xbc5679b7	-0.0130905425
230	0xbc415ddc	-0.011802163
231	0xbcd51430	-0.026010603
232	0xbc70e334	-0.014702607
233	0x3cb6e559	0.022326158
234	0x3dc4edaf	0.09615647
235	0xbd221ab7	-0.03957626
236	0x3c8fcd3f	0.017553924
237	0x3c95fd11	0.018309148
238	0x3de61327	0.11234122
239	0x3d3a15a1	0.045430783
240	0x3d096a5d	0.0335487
241	0xbd87acd7	-0.066247635
242	0x3d42ab21	0.047526482
243	0xbcc1f0d6	-0.02367441
244	0xb947b2c2	-0.00019044711
245	0xbca0c990	-0.019627362
246	0x3ce383d2	0.027772818
247	0x3cb3adde	0.021933492
248	0x3d39a66f	0.04532474
249	0x3c34eded	0.011043054
250	0xbcccf7cf	-0.025020508
251	0xbce7bd26	-0.028288435
252	0x3d183103	0.037156116
253	0x3cba198e	0.022717264
254	0x3d1dc517	0.038518038
255	0xbc179e66	-0.009254074

fc3.bias f4 [128]
0	0xbe98bcb5	-0.29831472
1	0xbe4ca3a7	-0.19984303
2	0x3e7693b8	0.24079788
3	0x3e3b4d01	0.18291093
4	0xbdaa63c1	-0.08319808
5	0x3e44e6ce	0.1922867
6	0x3e83d413	0.25747737
7	0x3e3b340d	0.18281575
8	0x3b0e43a0	0.0021707788
9	0xbf202e8e	-0.62571037
10	0xbd53ebfb	-0.05173872
11	0x3e998600	0.29985046
12	0xbde93c60	-0.11388469
13	0x3eb3dc60	0.3512907
14	0xbf038ddf	-0.51388353
15	0xbeab427a	-0.33449155
16	0xbe71b91a	-0.23605767
17	0x3d299f18	0.04141149
18	0x3ccea866	0.025226783
19	0x3d13e654	0.03610833
20	0xbe01059e	-0.12599799
21	0x3eea0350	0.45705652
22	0xbe9b42a9	-0.30324295
23	0x3e16a435	0.14711078
24	0xbe8bb623	-0.27287397
25	0xbe36650f	-0.17811988
26	0x3e795b7c	0.24351305
27	0x3e60782f	0.21920846
28	0x3cd059f0	0.02543351
29	0x3e113adb	0.14182608
30	0x3ec5d0c4	0.38635838
31	0xbd9429a2	-0.07234503
32	0xbdf4973a	-0.11942907
33	0xbd1549af	-0.036447223
34	0xbde7cb5b	-0.11318084
35	0xbe57b126	-0.2106367
36	0xbdb25c30	-0.087089896
37	0xbc8478ca	-0.016170878
38	0xbd11842a	-0.035526432
39	0x3e15d64e	0.14632532
40	0xbdea1016	-0.114288494
41	0x3e95c1a6	0.29249305
42	0x3e7c2b5b	0.24625914
43	0x3deb2155	0.11480967
44	0xbe43c074	-0.19116384
45	0xbe88c5b5	-0.26713338
46	0xbc9b72ce	-0.018975642
47	0xbc3fa3d2	-0.011696773
48	0xbeba732b	-0.3641599
49	0xbe7aeb32	-0.24503782
50	0x3c69ed8c	0.014277827
51	0xbe9578ac	-0.29193628
52	0xbecf59f3	-0.40498313
53	0x3d87283b	0.0659947
54	0x3d88942a	0.06668885
55	0xbcfdf3d6	-0.03100006
56	0xbe80a3db	-0.25125012
57	0x3cf46590	0.029833585
58	0xbd907694	-0.07053867
59	0x3ec3dc0a	0.38253814
60	0x3e425b29	0.18980087
61	0xbb902a8f	-0.0043996046
62	0xbefbf4e3	-0.4921027
63	0xbe5892a4	-0.21149689
64	0xbe401c95	-0.18760903
65	0xbe7d9cc9	-0.2476684
66	0x3eace15d	0.3376569
67	0x3dd332b3	0.103124045
68	0xbd5175bd	-0.051137675
69	0x3e2364bb	0.15956394
70	0xbec4ee91	-0.38463262
71	0xbe0e4bb6	-0.13896069
72	0xbe5814c6	-0.21101674
73	0xbe74be25	-0.2390066
74	0x3e20365a	0.15645733
75	0x3ea3cdb8	0.31992888
76	0x3e822245	0.2541677
77	0xbe08a119	-0.13342704
78	0x3e382e62	0.17986444
79	0x3d0b70b9	0.034043048
80	0xbe017dcf	-0.12645648
81	0x3d2b2be9	0.041789923
82	0xbe6a9844	-0.22909647
83	0xbdb28738	-0.08717197
84	0xbe8e1df3	-0.27757224
85	0xbe12aa1c	-0.14322704
86	0x3d5f2de5	0.054487128
87	0x3e8a5f61	0.27025893
88	0xbeb66d3a	-0.35630208
89	0xbe800921	-0.25006965
90	0xbe0e9463	-0.13923793
91	0x3ebf8d0f	0.37412307
92	0xbe7ac848	-0.24490464
93	0xbe54fa79	-0.20798673
94	0x3e208dba	0.15679064
95	0xbd8034da	-0.06260081
96	0xbe1de2fd	-0.1541862
97	0xbdd13eb3	-0.10217037
98	0x3e0d5682	0.13802531
99	0xbe6bfae0	-0.2304492
100	0xbe023344	-0.12714869
101	0xbd78f721	-0.060782555
102	0xbf0cc79c	-0.5499208
103	0x3e78daa2	0.24302152
104	0x3dee62cd	0.116399385
105	0xbe5d042b	-0.21583621
106	0x3f024111	0.50880533
107	0x3e6fd7b4	0.23422128
108	0x3d931b9c	0.071830004
109	0x3d5e46ed	0.05426686
110	0xbdad53fe	-0.08463286
111	0x3e86b0e4	0.26306832
112	0xbe09c5e6	-0.13454399
113	0x3db287b2	0.08717288
114	0x3e02d12d	0.12775107
115	0xbb55d35f	-0.0032627208
116	0xbda3f297	-0.08005255
117	0xbd1a7c84	-0.037716404
118	0xbddfd3a1	-0.10929037
119	0x3e17e1c2	0.14832214
120	0xbe7feb77	-0.24992166
121	0x3ec14872	0.37750584
122	0xbdf27808	-0.118393004
123	0xbe8eda4e	-0.27900928
124	0x3e0159b9	0.12631883
125	0xbda55e8a	-0.080746725
126	0xbe561546	-0.20906553
127	0xbe54e611	-0.20790888

fc4.weight f4 [6, 128]
0	0x3e002897	0.12515484
1	0x3d11e813	0.035621714
2	0xbdf0f180	-0.117648125
3	0x3d9d5ac5	0.076833285
4	0x3e26e464	0.16298062
5	0x3ca9cefd	0.020728583
6	0xbd4d25c3	-0.05008484
7	0xbddb6e70	-0.10714424
8	0x3e362a33	0.17789535
9	0x3d12b474	0.035816625
10	0x3cc5e075	0.024154881
11	0xbca4a2ff	-0.020097254
12	0xbdc263db	-0.09491702
13	0xbddbda2e	-0.10734974
14	0xbe199a8f	-0.15000366
15	0xbd2c146a	-0.042011656
16	0x3da8fd8c	0.08251485
17	0xbe33e51d	-0.17567869
18	0x3e2b90dc	0.16754478
19	0xbdecfc9e	-0.115716204
20	0x3d92a353	0.07160058
21	0xbd8ac029	-0.06774933
22	0x3db74b93	0.089499615
23	0x3d461ff1	0.048370305
24	0x3bca3756	0.0061711473
25	0x3d390630	0.045171916
26	0xbe2d7117	-0.16937672
27	0x3d95188a	0.07280071
28	0x3df36c86	0.118859336
29	0xbaf0a0ad	-0.0018358432
30	0x3df6ade5	0.120448865
31	0xbd331f20	-0.043730855
32	0x3bb546d8	0.005532127
33	0x3d9ed821	0.07756067
34	0xbc46c690	-0.012132302
35	0xbaa21107	-0.0012364694
36	0x3e189ff3	0.14904766
37	0xbd0351af	-0.03206032
38	0xbe189ca5	-0.14903505
39	0xbe09df2a	-0.13464037
40	0x3d3cc992	0.04609067
41	0xbd0d20f9	-0.034455273
42	0xbe093dee	-0.1340253
43	0x3d80170d	0.062543966
44	0x3d600489	0.054691825
45	0x3d496fd3	0.04917891
46	0xbd918a95	-0.071065105
47	0x3dd13410	0.10215008
48	0x3e45910f	0.19293617
49	0xbce53594	-0.02797965
50	0x3e3a3b08	0.18186581
51	0x3ddbc1d7	0.107303314
52	0xbdafa67e	-0.08576678
53	0x3e15f596	0.14644465
54	0x3caf5300	0.021401882
55	0xbd3a07c7	-0.045417573
56	0xbe092b74	-0.13395482
57	0x3e1a33ab	0.15058772
58	0xbe28f724	-0.16500527
59	0xbe7bd200	-0.24591827
60	0xbd787e56	-0.06066736
61	0xbb72d0f2	-0.003705081
62	0x3d5990d9	0.053116653
63	0x3dd48117	0.103761844
64	0xbe052363	-0.1300178
65	0xbe67c881	-0.2263508
66	0xbd30ccde	-0.043164127
67	0xbc504e00	-0.012713909
68	0xbbe8283b	-0.007084874
69	0xbe27ce7f	-0.16387366
70	0x3d1503f6	0.03638073
71	0x3d95f916	0.073229
72	0x3d915680	0.07096577
73	0xbe52a55c	-0.20570892
74	0xbc8cb1e9	-0.017174678
75	0xbe468876	-0.19387993
76	0xbdb0b8c0	-0.08628988
77	0xbd41f081	-0.047348503
78	0x3d1d3eb0	0.03838986
79	0x3d43ebf5	0.047832448
80	0xbd03e6ce	-0.032202534
81	0x3db8f3aa	0.0903085
82	0xbd342cd2	-0.043988056
83	0xbd363b05	-0.04448988
84	0xbd25a8fa	-0.04044435
85	0xbd0b4dcb	-0.034009736
86	0x3cc8b2df	0.024499355
87	0xbd813960	-0.063097715
88	0xbdff1dbd	-0.12456844
89	0x3e0eacfc	0.13933176
90	0x3d97afec	0.07406601
91	0xbd3f93fc	-0.04677199
92	0x3d7b5833	0.06136341
93	0xbd8a4865	-0.067520894
94	0x3d00c127	0.031434204
95	0xbdcbabd1	-0.09944881
96	0x3d6009a1	0.054696683
97	0x3e63e70a	0.22256103
98	0x3cdb386f	0.026760308
99	0xbe1b4b74	-0.15165502
100	0xbe2541a9	-0.16138329
101	0x3df69117	0.120393924
102	0xbdf04fab	-0.117339455
103	0x3e1f7271	0.15571
104	0x3b88d5b2	0.004175865
105	0xbd95115f	-0.07278704
106	0x3dab8448	0.0837484
107	0xbc84027c	-0.016114466
108	0xbded318a	-0.115817145
109	0x3e4064be	0.1878843
110	0x3d3f6b75	0.04673334
111	0xbd42ec09	-0.047588382
112	0xbe04bc07	-0.12962352
113	0xbcef7cc0	-0.02923429
114	0x3d5fb85e	0.054619186
115	0x3dfd10da	0.1235673
116	0xbd9cbf76	-0.07653706
117	0xbe03cd43	-0.1287127
118	0xbd47e38b	-0.048800986
119	0xbcbebe9a	-0.023284245
120	0x3db70771	0.08936966
121	0xbd845c15	-0.06462876
122	0x3d967b61	0.073477514
123	0x3da74b17	0.08168619
124	0x3dcb5e53	0.099301
125	0x3d0aa564	0.033849135
126	0x3b89c887	0.004204813
127	0x3deac645	0.11463598
128	0xbc195289	-0.009358057
129	0x3cb969bd	0.022633428
130	0xbd626fe9	-0.055282507
131	0xbd14adf5	-0.03629871
132	0x3c20c0be	0.009811578
133	0xbd9fde04	-0.07806018
134	0x3d4eccb2	0.05048818
135	0xbca7a966	-0.020466518
136	0x3dc18e63	0.09450986
137	0xbdac6d4b	-0.084192835
138	0x3da937b8	0.08262581
139	0x3d7d420a	0.061830558
140	0x3d0284e3	0.031865012
141	0x3d3ef540	0.046620607
142	0xbda039a6	-0.078234956
143	0x3d50c452	0.050968476
144	0xbd35b9a9	-0.044366512
145	0xbbae7655	-0.005324165
146	0x3d74e402	0.059787758
147	0xbb2c4136	-0.0026283986
148	0x3dc4782f	0.09593236
149	0x3d81cca7	0.063378625
150	0x3d45fdb5	0.048337657
151	0xbcce12b8	-0.02515541
152	0xbc8d2fb3	-0.017234659
153	0xbb921eef	-0.004459254
154	0xbb7b3576	-0.0038331426
155	0xbc4a78bf	-0.01235789
156	0xbc542082	-0.012947204
157	0xbda592c0	-0.08084631
158	0x3e184ebf	0.14873789
159	0x3d7aed6d	0.061261583
160	0xbd43ef81	-0.04783583
161	0x3c6fe2c7	0.01464147
162	0xbb3eff3d	-0.0029143833
163	0xbd2250d3	-0.03962786
164	0xbaacbc3d	-0.0013178658
165	0xbb05b726	-0.0020403354
166	0xbdb060dc	-0.086122245
167	0xbb0326fe	-0.0020012255
168	0xbc239632	-0.00998454
169	0xbcc67db5	-0.024229864
170	0xbcb076a3	-0.021540945
171	0xbd6729cc	-0.056436345
172	0x3d539788	0.051658183
173	0x3dc3b3e7	0.09555798
174	0xbd10d249	-0.035356794
175	0xbd10c15c	-0.035340652
176	0x3d4c1c8b	0.04983191
177	0x3d528f54	0.05140622
178	0x3d9966a8	0.07490283
179	0xbc873821	-0.016506257
180	0xbdc50f52	-0.09622063
181	0xbb398c6e	-0.0028312462
182	0x3ccf5326	0.025308203
183	0x3d272d73	0.040814828
184	0xbdabb331	-0.083837874
185	0x3af63195	0.0018783087
186	0xbb7f4891	-0.0038953165
187	0xbca5952c	-0.020212732
188	0xbd9ff45c	-0.0781028
189	0x3cd23de1	0.025664272
190	0x3d441cf8	0.04787919
191	0xbb5dfa64	-0.0033871168
192	0x3b7b829d	0.0038377412
193	0xbd78b844	-0.060722604
194	0x3cd18213	0.02557472
195	0x3d40d3c4	0.047076955
196	0xbcddcc0d	-0.027074838
197	0x3cec6c53	0.028860247
198	0x3dc297f0	0.09501636
199	0x3d678f2d	0.056533027
200	0x3d9ba4e7	0.07599812
201	0xbcbc75e2	-0.02300543
202	0xbd94f437	-0.07273143
203	0xbd34f64f	-0.04418021
204	0xbde15c0f	-0.11003887
205	0x3d4b7568	0.049672514
206	0xbd154783	-0.036445152
207	0x3cb3abd0	0.021932513
208	0x3d708a0b	0.058725398
209	0x3c9a3d10	0.018827945
210	0xbc66d286	-0.014088279
211	0xbc0f963c	-0.008763846
212	0x3d835e83	0.06414511
213	0x3dbb09cb	0.09132727
214	0xbd32eeb9	-0.043684695
215	0xbd83c71c	-0.064344615
216	0x3d1e6838	0.03867361
217	0xbcfac96d	-0.030613625
218	0x3c5933a4	0.013256941
219	0xbd898d99	-0.06716461
220	0x3da87bee	0.08226763
221	0xbc90d983	-0.017681843
222	0xbd92ba8c	-0.07164487
223	0xbd2c71c2	-0.042100675
224	0x3de4f3f5	0.111793436
225	0x3c001d77	0.007819525
226	0x3ddbd5b4	0.1073412
227	0xbda6ebed	-0.08150468
228	0xbd4f08fe	-0.050545685
229	0x3ca7170d	0.020396734
230	0xbdf773c2	-0.12082626
231	0xbc9b05e7	-0.018923713
232	0x3bb65c0a	0.005565171
233	0x3d1869d0	0.037210286
234	0x3d1ddc09	0.03853992
235	0xbdac121b	-0.08401891
236	0xbd99e11d	-0.0751364
237	0xbcf725ca	-0.030169386
238	0x3db35576	0.08756535
239	0xbdb73c4a	-0.08947046
240	0x3ce85e03	0.02836514
241	0x3d92b4d3	0.07163396
242	0xbcf52bea	-0.029928166
243	0xbc92a64a	-0.017901558
244	0x3cb12940	0.021626115
245	0x3d4d5965	0.05013408
246	0xbcbc8156	-0.02301089
247	0xbc6cd35f	-0.014454692
248	0x3d7a9eb1	0.061186496
249	0xbc9bb2bc	-0.019006126
250	0x3a77d977	0.0009454707
251	0xbd50e004	-0.050994888
252	0xbd0ad0f2	-0.033890672
253	0x3d32c6a4	0.04364647
254	0x3d20f4da	0.03929601
255	0x3c4a8cba	0.012362653

fc4.bias f4 [6]
0	0x428c0832	70.01601
1	0xc223ff0f	-40.99908
2	0xc25f4b01	-55.823246
3	0xc22348fb	-40.82127
4	0x4285f173	66.97158
5	0x4282a413	65.32046

fc5.weight f4 [6, 6]
0	0xbec602f8	-0.3867414
1	0xbdbc21ce	-0.09186135
2	0x3edc2aaa	0.430013
3	0x3ef49aad	0.47774258
4	0x3e93a119	0.28833845
5	0x3f5a89c1	0.85366446
6	0x3d364099	0.0444952
7	0x3f8ca72b	1.0988516
8	0x3cadb25a	0.021203209
9	0xbf919d15	-1.1376063
10	0xbd90d153	-0.070711754
11	0x3eba9514	0.36441863
12	0xbf108d63	-0.5646574
13	0x3f1726e2	0.59043705
14	0xbfc040bf	-1.5019759
15	0xbe22b591	-0.15889575
16	0x3ce1382a	0.027492601
17	0xbda04771	-0.07826126
18	0x40291b6b	2.6422985
19	0xc10e98bf	-8.912292
20	0xc1079a5a	-8.4751835
21	0xc127b99f	-10.482818
22	0x402a490a	2.660708
23	0x409f99db	4.987531
24	0xbdfc32df	-0.123143904
25	0xbebdbc92	-0.3705793
26	0x3df528b2	0.11970653
27	0xbe8911b1	-0.2677131
28	0xbe9db55c	-0.3080243
29	0x3e571b82	0.21006587
30	0x3ec628dd	0.3870305
31	0x3ec286aa	0.37993366
32	0xbf06ae99	-0.52610165
33	0x3f31b90c	0.69422984
34	0xbefe312f	-0.496469
35	0x3f0035f8	0.5008235

fc5.bias f4 [6]
0	0x404516be	3.079513
1	0x40d87e7a	6.765439
2	0x40e00d91	7.001656
3	0x42879868	67.79767
4	0x402c39cb	2.6910274
5	0x40720ea1	3.7821429
